2025-06-04 16:15:14,354 - train - INFO - ComboMTL(
  (protein_embedding): Embedding(15970, 64)
  (cell_embedding): Embedding(76, 64)
  (drug_embedding): Embedding(764, 64)
  (aggregation_function): Linear(in_features=192, out_features=64, bias=True)
  (neighbor_proj): Linear(in_features=128, out_features=512, bias=True)
  (global_attn): Sequential(
    (0): Linear(in_features=64, out_features=64, bias=True)
    (1): GELU()
    (2): Linear(in_features=64, out_features=1, bias=True)
  )
  (local_attn): Sequential(
    (0): Linear(in_features=128, out_features=64, bias=True)
    (1): GELU()
    (2): Linear(in_features=64, out_features=1, bias=True)
  )
  (out_transform): Linear(in_features=64, out_features=64, bias=True)
  (combine_function): Linear(in_features=128, out_features=64, bias=False)
)
Trainable parameters: 1179138
2025-06-04 16:15:14,355 - trainer - WARNING - Warning: There's no GPU available on this machine,training will be performed on CPU.
2025-06-04 16:17:07,005 - trainer - INFO - epoch: 1
2025-06-04 16:17:07,005 - trainer - INFO -     train          : loss           : 0.68	accuracy       : 0.62	precision      : 0.62	recall         : 0.38	roc_auc        : 0.68	pr_auc         : 0.62	f1_score       : 0.43	
…
